weights/srcnn.pth (torch, 82119 bytes, 6 tensors)

model.0.weight f4 [64, 3, 9, 9]
-0.043975234 -0.04698895 -0.056769025 0.010749753 -0.04597489 -0.046576682 0.009606731 0.026482882
0.048497796 0.03338018 0.06624424 0.055336524 0.12658827 0.054070197 0.07255244 0.041285716
0.058487162 0.055622704 0.0027669624 -0.061646044 0.009135774 0.13010377 0.12480242 0.05113933
0.057697922 -0.022110047 -0.013342086 0.06736836 -0.024619361 0.06120672 0.08395213 0.088746995
-0.043091368 0.05644415 -0.054934774 0.05641298 -0.07655717 -0.03518404 0.042279266 -0.042261746
-0.38611826 -0.48786944 -0.2458319 -0.10531177 -0.077172816 0.00067035557 0.08928462 0.034243245
-0.046308637 -0.3167794 -0.3152893 0.041705098 0.0367301 0.032696497 -0.01679472 0.09852306
0.066011615 0.089290224 0.0425518 0.03730641 0.1993864 0.05404408 0.09108007 -0.07582881
0.05795132 -0.01020887 0.03280812 0.059361007 0.10106245 0.056576513 -0.09381164 0.015714739
-0.02760564 0.029509641 -0.07922195 -0.007822409 0.019715184 -0.07969464 -0.034502257 -0.062423043
0.053411294 -0.0061769094 -0.06504502 0.006556386 -0.038671147 -0.008064637 0.001364709 0.036452714
-0.04348525 0.036336966 0.08662834 -0.030990696 0.01906479 0.10220348 0.008724936 0.082402915
0.10994458 0.0966628 0.058819935 0.051711097 -0.09384204 -0.03785961 0.028725097 0.098631516
0.062612385 0.008790491 -0.0472871 -0.008840189 0.0025575543 0.030564463 0.07412839 0.15171884
-0.015129993 -0.05543362 -0.014445066 -0.056975134 -0.009193855 -0.03180235 -0.064711675 -0.0070833866
-0.10948895 -0.39337975 -0.38617292 -0.19436678 -0.06817515 -0.0785838 -0.06459822 0.025731232
0.02582778 -0.0560097 -0.38142493 -0.24633951 0.03085703 0.07904156 0.032667268 0.008328728
0.03345042 0.055304717 0.08402324 -0.028093696 0.14694998 0.20549865 0.04475838 0.08290784
0.004577232 0.026622271 -0.012446575 0.012016185 0.072493896 0.13339391 0.058911674 -0.09860758
0.013900976 0.037140474 -0.015518489 -0.07723032 -0.015533896 -0.011756575 -0.0818408 -0.06570021
-0.09899474 -0.024109866 0.032638572 -0.044959586 -0.036084235 -0.089298375 -0.073153175 -0.054233
-0.041483637 -0.028886264 -0.030271018 0.03868134 -0.028840687 -0.020004075 0.0056007537 0.06478881
0.022612218 0.0759222 -0.00845849 0.057089936 -0.038977984 -0.008715977 -0.08245648 0.0112432595
0.11385577 0.0523116 0.0038758765 -0.066010505 -0.0066719097 0.0030801904 0.022429049 0.047348432
0.14774328 0.093905576 0.06750186 0.029181527 -0.08193665 0.019338349 -0.031819817 -0.030583154
0.04988957 -0.01943796 -0.2653678 -0.23158622 -0.010906706 -0.02187387 0.032971226 -0.007060557
0.07658974 0.0079246145 0.027238902 -0.11625687 -0.008735916 0.2197165 0.094127856 0.042303704
-0.042590432 -0.027304038 -0.0069318106 0.10378134 0.092642464 0.19470946 0.18878722 0.042643417
0.049539134 -0.054480415 0.035271693 -0.037349325 0.066930875 0.14718862 0.07785656 0.070723586
-0.13120835 -0.034600776 -0.035688438 -0.04506394 -0.07599766 -0.042392764 -0.08405577 -0.059324544
-0.10988297 -0.100592636 -0.034201123 -0.01941477 -0.04351268 -0.011319006 -0.0036566409 -0.0087865805
-0.014448985 -0.06428739 -0.04517218 0.029849859 0.043712746 0.018595167 -0.062691465 -0.03741314
00000000: 601f 34bd 7c77 40bd a386 68bd bb1f 303c
00000010: 2b50 3cbd 31c7 3ebd 8d65 1d3c a1f2 d83c
00000020: a0a5 463d a8b9 083d 0fab 873d 8da8 623d
00000030: 5ba0 013e b678 5d3d 6096 943d 361b 293d
00000040: 3c90 6f3d a2d4 633d ed55 353b 9080 7cbd
00000050: 37ae 153c ec39 053e 6998 ff3d 7977 513d
00000060: a854 6c3d 2120 b5bc c498 5abc 6cf8 893d
00000070: 8bae c9bc e6b3 7a3d 18ef ab3d fcc0 b53d
00000080: 9380 30bd fb31 673d 4903 61bd 4c11 673d
00000090: 01ca 9cbd 241d 10bd 062d 2d3d a71a 2dbd
000000a0: 4bb1 c5be 06ca f9be 5cbb 7bbe b3ad d7bd
000000b0: c80c 9ebd cdba 2f3a dbda b63d a542 0c3d
000000c0: 20ae 3dbd e930 a2be 996d a1be f7d2 2a3d
000000d0: 4d72 163d c3ec 053d 1595 89bc 75c6 c93d
000000e0: 1931 873d cbdd b63d cc4a 2e3d 9bce 183d
000000f0: f32b 4c3e 535d 5d3d 3088 ba3d 234c 9bbd
00000100: 5d5e 6d3d 1b43 27bc cf61 063d 8724 733d
00000110: d4f9 ce3d c6bc 673d 5120 c0bd 32bc 803c
00000120: 3925 e2bc 34be f13c 1e3f a2bd 9029 00bc
00000130: bd81 a13c f236 a3bd 3d52 0dbd 4eaf 7fbd
00000140: cdc5 5a3d ac67 cabb 5336 85bd f4d6 d63b
00000150: a365 1ebd 8a21 04bc 09e0 b23a 714f 153d
00000160: 971d 32bd 12d6 143d 336a b13d 33e0 fdbc
00000170: c32d 9c3c 0f50 d13d 09f3 0e3c dcc2 a83d
00000180: a02a e13d 25f7 c53d 2ced 703d 04cf 533d
00000190: 4130 c0bd ae12 1bbd e550 eb3c 52ff c93d
000001a0: ec3a 803d fe05 103c 1eb0 41bd 71d6 10bc
000001b0: a49c 273b 5362 fa3c a0d0 973d 2f5c 1b3e
000001c0: cae3 77bc 5d0e 63bd 00ab 6cbc c25e 69bd
000001d0: d3a1 16bc 2e43 02bd 8e87 84bd c11b e8bb
000001e0: be3b e0bd 1269 c9be 75b8 c5be 1608 47be
000001f0: 6a9f 8bbd 8bf0 a0bd 124c 84bd 4eca d23c
00000200: c894 d33c 6d6a 65bd 214a c3be 6d40 7cbe
00000210: e2c7 fc3c 8be0 a13d 1dce 053d 3875 083c
00000220: 4f03 093d 3387 623d 6014 ac3d c024 e6bc
00000230: 0e7a 163e 3d6e 523e 9054 373d 96cb a93d
00000240: 9bfc 953b f316 da3c b8ec 4bbc 88df 443c
00000250: ae77 943d 6a98 083e 5e4d 713d c5f2 c9bd
00000260: ebc0 633c 9c20 183d 4341 7ebc ee2a 9ebd
00000270: e281 7ebc a69e 40bc 269c a7bd d58d 86bd
00000280: c1bd cabd 0e82 c5bc 06b0 053d 8b27 38bd
00000290: 10cd 13bd 11e2 b6bd 55d1 95bd 6c23 5ebd
000002a0: bfea 29bd e3a2 ecbc edfa f7bc 5370 1e3d
000002b0: 4e43 ecbc 96df a3bc 8786 b73b ffaf 843d
000002c0: 423d b93c 197d 9b3d 7a95 0abc 23d7 693d
000002d0: 61a7 1fbd 75cd 0ebc f1de a8bd a635 383c
000002e0: 372d e93d b044 563d 6b02 7e3b 8430 87bd
000002f0: 09a0 dabb 05dd 493b 20bd b73c 6ef0 413d
00000300: 044a 173e 9151 c03d 6a3e 8a3d 190e ef3c
00000310: 67ce a7bd 756b 9e3c 7f55 02bd 8689 fabc
00000320: 0159 4c3d 5b3c 9fbc 4ade 87be f024 6dbe
00000330: 0ab2 32bc d530 b3bc d60c 073d 3f5c e7bb
00000340: 15db 9c3d 3ed6 013c 1e24 df3c 1518 eebd
00000350: 1621 0fbc 5dfd 603e 1bc6 c03d a646 2d3d
00000360: 4e73 2ebd b8ac dfbc 3e24 e3bb 508b d43d
00000370: 55bb bd3d eb61 473e 7051 413e ddaa 2e3d
00000380: 8ce9 4a3d db26 5fbd 0d79 103d 9bfb 18bd
00000390: 0e13 893d 9db8 163e 4373 9f3d 87d7 903d
000003a0: 7b5b 06be 8bb9 0dbd 0a2e 12bd f794 38bd
000003b0: a9a4 9bbd 09a4 2dbd 6e25 acbd 4bfe 72bd
000003c0: 530a e1bd 8303 cebd 7a16 0cbd b90b 9fbc
000003d0: 5a3a 32bd 5a73 39bc 41a4 6fbb 97f5 0fbc
000003e0: 70bb 6cbc 1ba9 83bd 7706 39bd b187 f43c
000003f0: 230c 333d e454 983c 6264 80bd 853e 19bd

model.0.bias f4 [64]
0.21192276 0.069687955 -0.05011537 0.0005638615 -0.019779226 -0.015043229 -0.051830556 -0.049168196
0.059599467 0.0099914465 -0.10269293 -0.03958373 -0.006001778 0.0861581 -0.03286045 -0.044988062
0.16231546 -0.022681022 -0.043279093 -0.043034688 0.08142263 0.056219812 0.060415782 0.15097344
-0.044648457 -0.008345072 0.0012771634 0.024638005 -0.02537832 -0.014094359 -0.019523751 0.057079393
-0.010097062 -0.022112915 -0.017023884 0.0502209 0.06455218 0.07254066 -0.048923872 0.0210479
-0.13829374 0.04631176 0.006489364 0.042029776 -0.018900264 -0.025559729 0.10243113 -0.027274381
0.0063602775 0.024395643 -0.035225186 -0.102251425 -0.007899471 -0.03186251 -0.1593251 -0.037914906
0.05225827 -0.047321994 0.020583062 -0.0301826 0.030726695 0.0449525 -0.046924677 -0.006381387
00000000: 4802 593e 8fb8 8e3d c645 4dbd 1bd0 133a
00000010: 0b08 a2bc e077 76bc 474c 54bd 9764 49bd
00000020: 921e 743d 2ab3 233c ac50 d2bd 8d22 22bd
00000030: 90aa c4bb a873 b03d ae98 06bd 6745 38bd
00000040: 0636 263e 8dcd b9bc 6b45 31bd 2445 30bd
00000050: e8c0 a63d bf46 663d 8a76 773d c898 1a3e
00000060: 4de1 36bd c5b9 08bc 7e66 a73a a4d5 c93c
00000070: 32e6 cfbc 07ec 66bc 46f0 9fbc 15cc 693d
00000080: 266e 25bc 2526 b5bc ac75 8bbc 6eb4 4d3d
00000090: ef33 843d 3390 943d 6664 48bd a56c ac3c
000000a0: e09c 0dbe 66b1 3d3d bba4 d43b 6a27 2c3d
000000b0: bad4 9abc a362 d1bc 6ac7 d13d 866e dfbc
000000c0: e069 d03b 5fd9 c73c 4948 10bd 3269 d1bd
000000d0: c86c 01bc 4382 02bd 1e26 23be a94c 1bbd
000000e0: c50c 563d b5d4 41bd cf9d a83c 8041 f7bc
000000f0: 8db6 fb3c 1d20 383d 1734 40bd f41a d1bb

model.2.weight f4 [32, 64, 1, 1]
-0.011958726 -0.10051594 0.050152015 -0.10611233 0.011857798 -0.06797051 -0.064958856 -0.060283363
0.028890219 -0.044867516 0.060508717 -0.002405485 -0.009648037 -0.009869476 -0.034611247 -0.08141181
-0.07718614 -0.029061804 0.0621874 0.07363088 0.00018627486 0.013595543 -0.09079701 -0.05335961
0.090645425 0.056535263 -0.04809311 -0.09837568 0.08914893 -0.087324314 -0.05910429 -0.08191919
0.05117404 -0.037612062 0.06748099 0.09920981 -0.066351846 -0.053309307 -0.0015890468 0.07421877
0.0695991 0.09515212 -0.0865366 -0.0022997255 -0.10447167 0.029961009 0.061172534 -0.10727655
0.07589181 -0.06489573 -0.048926204 0.107388936 -0.06224979 -0.034696773 -0.09709528 -0.045874827
-0.08150794 0.05447176 0.011199765 -0.03684561 0.0023590876 0.015958982 -0.06819208 0.029940793
-0.22850385 -0.060144138 0.09843538 0.03477335 0.08225651 0.04314057 -0.08918264 0.064337395
-0.09849357 0.17887977 -0.0024438929 0.06843354 -0.056811303 0.043218236 0.025011593 0.08140336
-0.1873319 0.0905994 -0.053590324 -0.011700127 0.02837807 -0.29209837 -0.35095802 -0.17494419
0.09201601 0.046291027 0.09329044 -0.14369008 0.0014375832 0.01269566 -0.05882922 0.14028005
-0.07087295 0.03160644 0.05690504 0.045260187 -0.101567164 -0.10918605 -0.059121888 -0.107188866
0.03683717 -0.2926802 -0.07414668 0.03990757 -0.028305678 -0.008269092 -0.02345976 -0.010254085
-0.13506794 -0.045698043 -0.0065938253 0.341842 0.18817508 0.097656906 0.03668548 -0.078552805
-0.06942265 0.004665315 0.08216467 0.056536663 -0.08936896 -0.04050342 -0.10941529 -0.100434765
0.024842247 0.051186383 0.066029824 -0.13375302 0.066536196 -0.101444475 -0.021837931 0.012250927
0.08313705 -0.020634836 0.07551432 -0.017629696 -0.038911406 -0.029551804 -0.052038614 0.0874597
-0.08621364 0.055042244 0.09565992 -0.040787082 -0.0676281 -0.003856854 -0.03654037 0.02387088
-0.047970753 0.03724801 -0.1313614 -0.05038636 0.10011855 0.040888544 0.09656619 -0.09279336
0.09273009 -0.04104939 -0.118304946 0.026045313 -0.09078962 -0.111682154 -0.012023027 0.032857593
0.09363696 -0.07438854 0.018124307 -0.055018537 -0.06992342 -0.015731884 -0.11106311 -0.092580564
-0.102828756 -0.04022492 0.075408064 -0.091389745 0.056359336 0.0757127 0.049759835 0.04132461
-0.09517569 0.07504022 -0.009158494 0.03531303 0.049256302 0.06788191 0.06493343 -0.06728484
-0.20613939 -0.68693626 -0.06498316 -0.16559376 0.18065569 0.039560806 0.099130355 -0.061217282
-0.08354759 -0.17432968 0.21908435 -0.02674222 -0.06926937 -0.1820429 0.08372343 0.06740603
-0.087619245 -0.03832633 0.028487707 0.07220921 -0.12749611 -0.1032981 0.18256865 0.024852686
0.46199635 -0.03399877 -0.122313626 0.02538574 -0.054793276 0.23950565 0.014946183 -0.07320588
-0.04426776 -0.11898053 -0.077765934 -0.103611365 -0.015861103 -0.18737276 -0.058913987 0.056967527
0.0059651295 0.05081788 0.04641921 0.027221441 -0.22293276 0.12782109 -0.03255187 0.078981325
-0.017635146 0.0107646575 -0.1006445 -0.28562406 0.016476411 0.07726249 0.084328145 -0.1668227
0.08531878 -0.007025444 -0.1533711 0.33755285 -0.16269536 -0.018406257 -0.16764899 -0.6207419
00000000: 88ee 43bc 4ddb cdbd 336c 4d3d 6c51 d9bd
00000010: 3647 423c 1f34 8bbd 2609 85bd b0eb 76bd
00000020: 2eab ec3c 00c7 37bd fdd7 773d 57a5 1dbb
00000030: cd12 1ebc 95b3 21bc 86c4 0dbd 3cbb a6bd
00000040: c413 9ebd 0513 eebc 37b8 7e3d c9cb 963d
00000050: c752 4339 d7bf 5e3c c8f3 b9bd 9b8f 5abd
00000060: 4fa4 b93d 8591 673d 48fd 44bd 3079 c9bd
00000070: b793 b63d 17d7 b2bd 5717 72bd 40c5 a7bd
00000080: df9b 513d 1b0f 1abd 7933 8a3d 832e cb3d
00000090: 7ae3 87bd dc5a 5abd 9047 d0ba 0300 983d
000000a0: f989 8e3d 1ddf c23d 1a3a b1bd feb6 16bb
000000b0: 3ef5 d5bd ca70 f53c 0d90 7a3d cfb3 dbbd
000000c0: 2a6d 9b3d 0de8 84bd d866 48bd bbee db3d
000000d0: a3f9 7ebd 341e 0ebd e4d9 c6bd 3ee7 3bbd
000000e0: a3ed a6bd c81d 5f3d 387f 373c 6ceb 16bd
000000f0: ec9a 1a3b 69bc 823c 4aa8 8bbd 6546 f53c
00000100: eafc 69be b359 76bd 7d98 c93d 806e 0e3d
00000110: 1a76 a83d 2bb4 303d 63a5 b6bd 53c3 833d
00000120: ffb6 c9bd 422c 373e b829 20bb e226 8c3d
00000130: f8b2 68bd 9b05 313d 1de5 cc3c ceb6 a63d
00000140: efd3 3fbe 2e8c b93d 8781 5bbd e4b1 3fbc
00000150: 2079 e83c eb8d 95be c5b0 b3be 9224 33be
00000160: e472 bc3d a99b 3d3d 0f0f bf3d 7e23 13be
00000170: 4a6d bc3a 7501 503c e8f6 70bd 93a5 0f3e
00000180: d625 91bd c175 013d 4215 693d bf62 393d
00000190: 7202 d0bd f09c dfbd cb29 72bd d685 dbbd
000001a0: 93e2 163d 2eda 95be 37da 97bd 1f76 233d
000001b0: 4fe1 e7bc 167b 07bc af2e c0bc c000 28bc
000001c0: 404f 0abe df2d 3bbd 0411 d8bb ea05 af3e
000001d0: f8b0 403e 5800 c83d 8443 163d 4be0 a0bd
000001e0: 762d 8ebd 80df 983b f345 a83d fd92 673d
000001f0: 1307 b7bd eae6 25bd 2015 e0bd beb0 cdbd
00000200: f881 cb3c d0a8 513d a53a 873d 8df6 08be
00000210: 2144 883d 1fc2 cfbd 76e5 b2bc 1db8 483c
00000220: c243 aa3d 630a a9bc 40a7 9a3d 276c 90bc
00000230: 9161 1fbd a016 f2bc 7126 55bd 121e b33d
00000240: c790 b0bd fa73 613d 59e9 c33d 5b10 27bd
00000250: 9a80 8abd 46c3 7cbb 5bab 15bd dd8c c33c
00000260: fb7c 44bd 5f91 183d 9a83 06be ee61 4ebd
00000270: f40a cd3d bf7a 273d 7fc4 c53d 720a bebd
00000280: 46e9 bd3d 6823 28bd dd49 f2bd fb5c d53c
00000290: e9ef b9bd 9db9 e4bd 3bfc 44bc af95 063d
000002a0: bcc4 bf3d 0559 98bd 6d79 943c 1e5b 61bd
000002b0: 0334 8fbd 27e0 80bc 0e75 e3bd e19a bdbd
000002c0: e297 d2bd e3c2 24bd 8b6f 9a3d 8c2a bbbd
000002d0: 0cd9 663d 430f 9b3d f8d0 4b3d ff43 293d
000002e0: 79eb c2bd b0ae 993d 820d 16bc 65a4 103d
000002f0: fac0 493d ac05 8b3d d1fb 843d a2cc 89bd
00000300: 3416 53be 0edb 2fbf e415 85bd 6991 29be
00000310: cefd 383e 830a 223d db04 cb3d f9be 7abd
00000320: 001b abbd 7b83 32be a657 603e 8012 dbbc
00000330: 19dd 8dbd 7469 3abe 3177 ab3d 2c0c 8a3d
00000340: b871 b3bd 12fc 1cbd 0d5f e93c 6ce2 933d
00000350: 578e 02be f48d d3bd 47f3 3a3e dc97 cb3c
00000360: c98a ec3e 4b42 0bbd 917f fabd c1f5 cf3c
00000370: ea6e 60bd f840 753e d6e0 743c f7ec 95bd
00000380: 1c52 35bd 10ac f3bd bf43 9fbd 3232 d4bd
00000390: 25ef 81bc a5de 3fbe cb4f 71bd c856 693d
000003a0: 2277 c33b 6926 503d 1222 3e3d 80ff de3c
000003b0: 7c48 64be 88e3 023e 1c55 05bd f6c0 a13d
000003c0: 9577 90bc 3f5e 303c b41e cebd 513d 92be
000003d0: 8af9 863c cc3b 9e3d 3cb4 ac3d 92d3 2abe
000003e0: 9dbb ae3d b235 e6bb 500d 1dbe bad3 ac3e
000003f0: 9d99 26be b8c8 96bc 2dac 2bbe f1e8 1ebf

model.2.bias f4 [32]
-0.08970649 0.07249989 -0.08021853 0.065706186 -0.05184901 0.06335535 0.06567355 -0.117682524
-0.15926601 -0.024194952 0.03534259 0.08307801 0.021371277 0.00082849554 -0.0052759275 0.002927951
0.0069188382 0.012293503 0.0064741704 0.034002386 -0.059662573 0.018784443 -0.015316838 -0.004131658
-0.069841534 -0.11145745 -0.097822085 -0.13238405 -0.032481093 -0.06530894 0.007323561 -0.02586163
00000000: 09b8 b7bd d37a 943d 9d49 a4bd f790 863d
00000010: a15f 54bd 73c0 813d db7f 863d 8903 f1bd
00000020: a116 23be 7e34 c6bc 64c3 103d ce24 aa3d
00000030: d112 af3c 652f 593a b0e1 acbb dee2 3f3b
00000040: 6cb7 e23b b06a 493c 4725 d43b 1646 0b3d
00000050: be60 74bd d5e1 993c 7af3 7abc dc62 87bb
00000060: 1409 8fbd ce43 e4bd f256 c8bd af8f 07be
00000070: e50a 05bd b2c0 85bd 7bfa ef3b c5db d3bc

model.4.weight f4 [3, 32, 5, 5]
-0.0274278 -0.002227474 0.010974217 -0.02307974 -0.024787622 -0.005205051 0.015234786 0.025423886
-0.017051242 0.013106152 -0.016488306 -0.008521814 0.008601197 -0.024608629 0.018815305 -0.0036026079
-0.017464375 0.01610848 -0.01122055 0.024194876 -0.0076566814 0.023701666 -0.020982547 -0.011224304
-0.011129445 -0.04997618 0.04129659 -0.031942174 0.007520805 0.029836241 -0.06030583 0.33872786
0.03745902 0.016613927 0.08092892 -0.046458654 -0.018421654 -0.29964972 -0.06687718 -0.006830257
0.030910864 0.06283138 -0.064169146 0.013475251 0.014475624 -0.015790408 0.053793203 -0.021326449
0.044772528 -0.0067912065 0.024364768 0.0044786697 -0.01397217 -0.00067060435 0.0022294542 0.007998037
0.013961306 -0.0038413631 -0.010164596 0.0318584 0.020205818 0.01945895 0.005965369 0.03412427
-0.015764356 -0.007934584 0.010686196 0.009517203 0.00363267 -0.000990022 -0.016291397 -0.018092783
-0.011206154 -0.018180555 -0.00011589219 0.008119772 -0.006912515 0.02956132 0.035704307 0.030805299
0.07794702 0.028401857 -0.036757287 -0.0061371624 -0.04210339 0.09281789 0.13292636 0.117330715
0.1111669 0.12256248 -0.08879752 -0.07269955 -0.042866014 -0.039728235 -0.05148491 0.050152317
0.07426095 0.036032 0.04247733 0.017612655 0.03019667 -0.031220146 -0.017145135 -0.0292186
-0.00048304815 -0.029627845 -0.04638425 0.012629016 0.0045559616 -0.012251157 -0.017200999 -0.03513306
-0.023183659 0.03537224 0.00722245 -0.014873971 0.018461516 -0.020346344 -0.00724818 0.018155657
0.003782513 -0.0007959496 -0.0122138 -0.011002489 -0.005180065 0.006910953 -0.020476814 -0.018918477
-0.03368193 -0.00986656 0.006126059 -0.025368247 -0.019341946 -0.047356416 -0.023737673 -0.0015776401
0.0019441502 0.01678503 -0.03801981 -0.0061976765 -0.02231112 -0.005939992 0.0016243045 -0.01867226
0.0025114752 0.03542424 0.031637657 0.012829649 0.045398552 0.03938538 -0.0158828 -0.0050790384
-0.0014506747 0.011310615 -0.024781432 0.011216111 -0.028019713 0.0021720696 0.014527548 0.014232802
-0.018937714 -0.017513627 -0.02453253 -0.014202647 -0.035088565 -0.005319292 0.010826034 0.01776109
0.025720304 -0.0025729903 -0.0013135674 0.0044349795 0.0056181904 0.01675609 0.020606115 -0.004383452
0.003440805 0.015289251 -0.026507135 -0.010369829 0.02302703 0.014518999 -0.019458763 -0.01682721
0.010158383 0.0059965733 -0.032836385 -0.0028414368 -0.013859044 0.012544813 -0.004080782 -0.02848738
-0.0024336586 -0.03777333 0.005126493 0.01342164 0.017448908 0.038750984 -0.025077453 -0.021777047
-0.012338818 0.0032843994 0.023012938 -0.04995167 0.058967434 0.0031565307 0.05034769 0.019385418
-0.06341324 0.057246983 -0.033228237 0.10029541 -0.07703022 -0.0283645 0.05079933 -0.062066253
-0.11366561 -0.078819185 0.025766253 -0.020542163 0.08662792 0.07077748 0.05601032 0.029141558
-0.018382799 -0.050453935 0.0072813225 -0.01062155 -0.023949504 -0.029903479 0.00791714 0.0037604969
-0.00850806 -0.026630197 0.032695256 -0.0085898535 0.0018144621 -0.023486331 -0.020347673 0.02859228
-0.016177885 0.02796251 0.005808016 -0.018070908 0.036356173 -0.03904527 0.028535215 0.02821273
0.015969252 -0.01802367 0.013793486 -0.06555232 -0.09503385 -0.024882937 0.012498533 -0.030350883
00000000: 44b0 e0bc d0fa 11bb 34cd 333c b911 bdbc
00000010: 690f cbbc 228f aabb 539b 793c c145 d03c
00000020: 0caf 8bbc 30bb 563c 7c12 87bc 149f 0bbc
00000030: 09ec 0c3c 0998 c9bc 8e22 9a3c bb19 6cbb
00000040: 7311 8fbc eef5 833c 66d6 37bc 5534 c63c
00000050: e6e4 fabb ff29 c23c 97e3 abbc 25e6 37bc
00000060: 4758 36bc d3b3 4cbd 9d26 293d ccd5 02bd
00000070: 1671 f63b 226b f43c 3f03 77bd bd6d ad3e
00000080: a16e 193d ee19 883c 10be a53d 6e4b 3ebd
00000090: 02e9 96bc b06b 99be e7f6 88bd 59d0 dfbb
000000a0: c838 fd3c bdad 803d 1d6b 83bd 4dc7 5c3c
000000b0: 2b2b 6d3c e35a 81bc 4356 5c3d ceb4 aebc
000000c0: 6663 373d c588 debb 9f98 c73c cec1 923b
000000d0: 87eb 64bc 7fcb 2fba 091c 123b 330a 033c
000000e0: f6bd 643c 61bf 7bbb 6889 26bc f47d 023d
000000f0: ac86 a53c 6068 9f3c 2479 c33b e4c5 0b3d
00000100: 4024 81bc 0f00 02bc 2815 2f3c 0bee 1b3c
00000110: 1712 6e3b a0c3 81ba 8975 85bc 5137 94bc
00000120: 049a 37bc 63ef 94bc 250b f3b8 cb08 053c
00000130: 6182 e2bb 952a f23c ae3e 123d 655b fc3c
00000140: b0a2 9f3d 03ab e83c cf8e 16bd 401a c9bb
00000150: 9b74 2cbd 4e17 be3d d91d 083e 164b f03d
00000160: 79ab e33d 0a02 fb3d 79db b5bd 80e3 94bd
00000170: 4694 2fbd 13ba 22bd d7e1 52bd 846c 4d3d
00000180: 2016 983d 4a96 133d b5fc 2d3d 6a48 903c
00000190: 025f f73c 64c1 ffbc f473 8cbc d85b efbc
000001a0: a041 fdb9 18b6 f2bc 69fd 3dbd efe9 4e3c
000001b0: 2d4a 953b 14b9 48bc 1ce9 8cbc afe7 0fbd
000001c0: a8eb bdbc 7be2 103d 4daa ec3b f5b1 73bc
000001d0: 9b3c 973c 60ad a6bc 2482 edbb 2cbb 943c
000001e0: 0ae4 773b 46a7 50ba 641c 48bc c943 34bc
000001f0: 89bd a9bb 4775 e23b febe a7bc ecfa 9abc
00000200: 10f6 09bd 5aa7 21bc 1cbd c83b 12d1 cfbc
00000210: 0073 9ebc cdf8 41bd 8275 c2bc d1c8 ceba
00000220: dbd2 fe3a c280 893c a9ba 1bbd e115 cbbb
00000230: cfc5 b6bc 44a4 c2bb 9de6 d43a 91f6 98bc
00000240: 9097 243b 0219 113d 7d96 013d 7333 523c
00000250: d5f3 393d 9052 213d a51c 82bc 106e a6bb
00000260: 9124 beba 2850 393c 6e02 cbbc c7c3 373c
00000270: 9989 e5bc 4859 0e3b f404 6e3c b330 693c
00000280: 4423 9bbc bd78 8fbc 72f8 c8bc 38b2 68bc
00000290: 07b9 0fbd 754d aebb ad5f 313c b57f 913c
000002a0: 63b3 d23c 9d9f 28bb 022c acba 4e53 913b
000002b0: cc18 b83b 1144 893c 28ce a83c 0fa3 8fbb
000002c0: 217f 613b c47f 7a3c 7e25 d9bc 37e6 29bc
000002d0: 2fa3 bc3c 18e1 6d3c fc67 9fbc 38d9 89bc
000002e0: 596f 263c e77e c43b 727f 06bd 6637 3abb
000002f0: 0b11 63bc c288 4d3c 15b8 85bb 5e5e e9bc
00000300: 047e 1fbb 35b8 1abd 24fc a73b 70e6 5b3c
00000310: 03f1 8e3c 5ab9 1e3d 3b6f cdbc c765 b2bc
00000320: c128 4abc 143f 573b a185 bc3c 1f9a 4cbd
00000330: d687 713d ccdd 4e3b 6139 4e3d 2bce 9e3c
00000340: cdde 81bd d07b 6a3d 551a 08bd ae67 cd3d
00000350: 05c2 9dbd ab5c e8bc f512 503d 2f39 7ebd
00000360: 84c9 e8bd f46b a1bd c013 d33c 0a48 a8bc
00000370: fb69 b13d c9f3 903d 146b 653d 47ba ee3c
00000380: 8697 96bc c9a8 4ebd 2998 ee3b 0206 2ebc
00000390: c031 c4bc 24f8 f4bc e4b6 013c ab72 763b
000003a0: 6465 0bbc 9227 dabc 76eb 053d 75bc 0cbc
000003b0: 3fd3 ed3a 6866 c0bc 2ab0 a6bc 5b3a ea3c
000003c0: 7c87 84bc a211 e53c 2b51 be3b 7109 94bc
000003d0: 36ea 143d efed 1fbd afc2 e93c 621e e73c
000003e0: f3d1 823c 60a6 93bc 13fe 613c 4b40 86bd
000003f0: 1ba1 c2bd 4dd7 cbbc a6c6 4c3c 6aa2 f8bc

model.4.bias f4 [3]
0.009631504 -0.004367262 0.0002653448
00000000: 75cd 1d3c 401b 8fbb fa1d 8b39
